…
TRAIN: [ 9 66 39 21 51 55 43 63  0 37 31 48  4 32 36 10 23 49 61 19 60 30 50 12
 64 38  1 41 34 26 46  5 33  8 44 56 45  3 59  2 22 17 40 58  7 18 62 42
 65 52 47 15 29 25] TEST: [57 11 13 24 53 20 67 27 54 14 16 35 28  6]
(DL) TRAIN number of instances:  54
(DL) TEST number of instances:  14
(DL) Total number of instances (TRAIN+TEST):  68
----- train_GSR_AE -------
Model: "sequential_1196"
_________________________________________________________________
 Layer (type)                Output Shape              Param #   
=================================================================
 1stConvL (Conv1D)           (None, 23008, 5)          105       
                                                                 
 1stPoolL (AveragePooling1D)  (None, 5752, 5)          0         
                                                                 
 2ndConvL (Conv1D)           (None, 5752, 6)           306       
                                                                 
 2ndPoolL (AveragePooling1D)  (None, 1438, 6)          0         
                                                                 
 up_sampling1d_2392 (UpSampl  (None, 5752, 6)          0         
 ing1D)                                                          
                                                                 
 conv1d_transpose_2392 (Conv  (None, 5752, 6)          366       
 1DTranspose)                                                    
                                                                 
 up_sampling1d_2393 (UpSampl  (None, 23008, 6)         0         
 ing1D)                                                          
                                                                 
 conv1d_transpose_2393 (Conv  (None, 23008, 1)         121       
 1DTranspose)                                                    
                                                                 
=================================================================
Total params: 898
Trainable params: 898
Non-trainable params: 0
_________________________________________________________________
Epoch 1/5
 1/48 [..............................] - ETA: 28:45 -
…
==========================>.] - ETA: 0s - loss: 11.5572 - mean_squared_error: 11.557248/48 [==============================] - 2s 36ms/step - loss: 11.6095 - mean_squared_error: 11.6095 - val_loss: 15.8505 - val_mean_squared_error: 15.8505
(54, 1438, 6)
Model: "sequential_1196"
_________________________________________________________________
 Layer (type)                Output Shape              Param #   
=================================================================
 1stConvL (Conv1D)           (None, 23008, 5)          105       
                                                                 
 1stPoolL (AveragePooling1D)  (None, 5752, 5)          0         
                                                                 
 2ndConvL (Conv1D)           (None, 5752, 6)           306       
                                                                 
 2ndPoolL (AveragePooling1D)  (None, 1438, 6)          0         
                                                                 
=================================================================
Total params: 411
Trainable params: 411
Non-trainable params: 0
_________________________________________________________________
----- train_PPG_AE -------
Model: "sequential_1197"
_________________________________________________________________
 Layer (type)                Output Shape              Param #   
=================================================================
 1stConvL (Conv1D)           (None, 23008, 5)          105       
                                                                 
 1stPoolL (AveragePooling1D)  (None, 5752, 5)          0         
                                                                 
 2ndConvL (Conv1D)           (None, 5752, 6)           306       
                                                                 
 2ndPoolL (AveragePooling1D)  (None, 1438, 6)          0         
                                                                 
 up_sampling1d_2394 (UpSampl  (None, 5752, 6)          0         
 ing1D)                                                          
                                                                 
 conv1d_transpose_2394 (Conv  (None, 5752, 6)          366       
 1DTranspose)                                                    
                                                                 
 up_sampling1d_2395 (UpSampl  (None, 23008, 6)         0         
 ing1D)                                                          
                                                                 
 conv1d_transpose_2395 (Conv  (None, 23008, 1)         121       
 1DTranspose)                                                    
                                                                 
=================================================================
Total params: 898
Trainable params: 898
Non-trainable params: 0
_________________________________________________________________
Epoch 1/5
 1/48 [..............................] - ETA: 24:51 -
…
 Layer (type)                   Output Shape         Param #     Connected to                     
==================================================================================================
 inputGSR (InputLayer)          [(None, 23008, 1)]   0           []                               
                                                                                                  
 inputPPG (InputLayer)          [(None, 23008, 1)]   0           []                               
                                                                                                  
 sequential_1196 (Sequential)   (None, 1438, 6)      411         ['inputGSR[0][0]']               
                                                                                                  
 sequential_1197 (Sequential)   (None, 1438, 6)      411         ['inputPPG[0][0]']               
                                                                                                  
 concatenate_598 (Concatenate)  (None, 1438, 12)     0           ['sequential_1196[0][0]',        
                                                                  'sequential_1197[0][0]']        
                                                                                                  
 permute_598 (Permute)          (None, 12, 1438)     0           ['concatenate_598[0][0]']        
                                                                                                  
 flatten_598 (Flatten)          (None, 17256)        0           ['permute_598[0][0]']            
                                                                                                  
 dropout_598 (Dropout)          (None, 17256)        0           ['flatten_598[0][0]']            
                                                                                                  
 dense_598 (Dense)              (None, 1)            17257       ['dropout_598[0][0]']            
                                                                                                  
==================================================================================================
Total params: 18,079
Trainable params: 18,079
Non-trainable params: 0
__________________________________________________________________________________________________
…
