…
  4 32 24 53 83 22 50 47 97  0 91 77 71 65 78 54 44 11  6 86 35 87 52 67
 36 16  7 51 61 90 23 81 21 82 60 14 72 27  1 64 74 37 69 28 89 20 41 88
 95 68 70 58 92 15 30] TEST: [19 93 17 63 13 25 18 56 43 96 75 76  8 85 42 59 80 62 31 40]
(DL) TRAIN number of instances:  79
(DL) TEST number of instances:  20
(DL) Total number of instances (TRAIN+TEST):  99
----- train_GSR_AE -------
Model: "sequential_1198"
_________________________________________________________________
 Layer (type)                Output Shape              Param #   
=================================================================
 1stConvL (Conv1D)           (None, 23008, 5)          105       
                                                                 
 1stPoolL (AveragePooling1D)  (None, 5752, 5)          0         
                                                                 
 2ndConvL (Conv1D)           (None, 5752, 6)           306       
                                                                 
 2ndPoolL (AveragePooling1D)  (None, 1438, 6)          0         
                                                                 
 up_sampling1d_2396 (UpSampl  (None, 5752, 6)          0         
 ing1D)                                                          
                                                                 
 conv1d_transpose_2396 (Conv  (None, 5752, 6)          366       
 1DTranspose)                                                    
                                                                 
 up_sampling1d_2397 (UpSampl  (None, 23008, 6)         0         
 ing1D)                                                          
                                                                 
 conv1d_transpose_2397 (Conv  (None, 23008, 1)         121       
 1DTranspose)                                                    
                                                                 
=================================================================
Total params: 898
Trainable params: 898
Non-trainable params: 0
_________________________________________________________________
Epoch 1/5
 1/71 [..............................] - ETA: 39:29 -
…
71 [==============================] - ETA: 0s - loss: 9.8171 - mean_squared_error: 9.817171/71 [==============================] - 3s 36ms/step - loss: 9.8171 - mean_squared_error: 9.8171 - val_loss: 23.9262 - val_mean_squared_error: 23.9262
(79, 1438, 6)
Model: "sequential_1198"
_________________________________________________________________
 Layer (type)                Output Shape              Param #   
=================================================================
 1stConvL (Conv1D)           (None, 23008, 5)          105       
                                                                 
 1stPoolL (AveragePooling1D)  (None, 5752, 5)          0         
                                                                 
 2ndConvL (Conv1D)           (None, 5752, 6)           306       
                                                                 
 2ndPoolL (AveragePooling1D)  (None, 1438, 6)          0         
                                                                 
=================================================================
Total params: 411
Trainable params: 411
Non-trainable params: 0
_________________________________________________________________
----- train_PPG_AE -------
Model: "sequential_1199"
_________________________________________________________________
 Layer (type)                Output Shape              Param #   
=================================================================
 1stConvL (Conv1D)           (None, 23008, 5)          105       
                                                                 
 1stPoolL (AveragePooling1D)  (None, 5752, 5)          0         
                                                                 
 2ndConvL (Conv1D)           (None, 5752, 6)           306       
                                                                 
 2ndPoolL (AveragePooling1D)  (None, 1438, 6)          0         
                                                                 
 up_sampling1d_2398 (UpSampl  (None, 5752, 6)          0         
 ing1D)                                                          
                                                                 
 conv1d_transpose_2398 (Conv  (None, 5752, 6)          366       
 1DTranspose)                                                    
                                                                 
 up_sampling1d_2399 (UpSampl  (None, 23008, 6)         0         
 ing1D)                                                          
                                                                 
 conv1d_transpose_2399 (Conv  (None, 23008, 1)         121       
 1DTranspose)                                                    
                                                                 
=================================================================
Total params: 898
Trainable params: 898
Non-trainable params: 0
_________________________________________________________________
Epoch 1/5
 1/71 [..............................] - ETA: 36:55 -
…
 Layer (type)                   Output Shape         Param #     Connected to                     
==================================================================================================
 inputGSR (InputLayer)          [(None, 23008, 1)]   0           []                               
                                                                                                  
 inputPPG (InputLayer)          [(None, 23008, 1)]   0           []                               
                                                                                                  
 sequential_1198 (Sequential)   (None, 1438, 6)      411         ['inputGSR[0][0]']               
                                                                                                  
 sequential_1199 (Sequential)   (None, 1438, 6)      411         ['inputPPG[0][0]']               
                                                                                                  
 concatenate_599 (Concatenate)  (None, 1438, 12)     0           ['sequential_1198[0][0]',        
                                                                  'sequential_1199[0][0]']        
                                                                                                  
 permute_599 (Permute)          (None, 12, 1438)     0           ['concatenate_599[0][0]']        
                                                                                                  
 flatten_599 (Flatten)          (None, 17256)        0           ['permute_599[0][0]']            
                                                                                                  
 dropout_599 (Dropout)          (None, 17256)        0           ['flatten_599[0][0]']            
                                                                                                  
 dense_599 (Dense)              (None, 1)            17257       ['dropout_599[0][0]']            
                                                                                                  
==================================================================================================
Total params: 18,079
Trainable params: 18,079
Non-trainable params: 0
__________________________________________________________________________________________________
…
