…
 Layer (type)                   Output Shape         Param #     Connected to                     
==================================================================================================
 inputGSR (InputLayer)          [(None, 23008, 1)]   0           []                               
                                                                                                  
 inputPPG (InputLayer)          [(None, 23008, 1)]   0           []                               
                                                                                                  
 sequential_1194 (Sequential)   (None, 1438, 6)      411         ['inputGSR[0][0]']               
                                                                                                  
 sequential_1195 (Sequential)   (None, 1438, 6)      411         ['inputPPG[0][0]']               
                                                                                                  
 concatenate_597 (Concatenate)  (None, 1438, 12)     0           ['sequential_1194[0][0]',        
                                                                  'sequential_1195[0][0]']        
                                                                                                  
 permute_597 (Permute)          (None, 12, 1438)     0           ['concatenate_597[0][0]']        
                                                                                                  
 flatten_597 (Flatten)          (None, 17256)        0           ['permute_597[0][0]']            
                                                                                                  
 dropout_597 (Dropout)          (None, 17256)        0           ['flatten_597[0][0]']            
                                                                                                  
 dense_597 (Dense)              (None, 1)            17257       ['dropout_597[0][0]']            
                                                                                                  
==================================================================================================
Total params: 18,079
Trainable params: 18,079
Non-trainable params: 0
__________________________________________________________________________________________________
…
            train_size=None)
TRAIN: [32 39  9 20 46 51 21 40  8 36 10 38 13 47 11 44 19 41 37 25 45 16 31  6
  0 49 24 43  2 42  5 28 34 15  4 18 33  3 27 29 12] TEST: [ 1 35 48 26 30 22  7 50 23 14 17]
(DL) TRAIN number of instances:  41
(DL) TEST number of instances:  11
(DL) Total number of instances (TRAIN+TEST):  52
----- train_GSR_AE -------
Model: "sequential_1196"
_________________________________________________________________
 Layer (type)                Output Shape              Param #   
=================================================================
 1stConvL (Conv1D)           (None, 23008, 5)          105       
                                                                 
 1stPoolL (AveragePooling1D)  (None, 5752, 5)          0         
                                                                 
 2ndConvL (Conv1D)           (None, 5752, 6)           306       
                                                                 
 2ndPoolL (AveragePooling1D)  (None, 1438, 6)          0         
                                                                 
 up_sampling1d_2392 (UpSampl  (None, 5752, 6)          0         
 ing1D)                                                          
                                                                 
 conv1d_transpose_2392 (Conv  (None, 5752, 6)          366       
 1DTranspose)                                                    
                                                                 
 up_sampling1d_2393 (UpSampl  (None, 23008, 6)         0         
 ing1D)                                                          
                                                                 
 conv1d_transpose_2393 (Conv  (None, 23008, 1)         121       
 1DTranspose)                                                    
                                                                 
=================================================================
Total params: 898
Trainable params: 898
Non-trainable params: 0
_________________________________________________________________
Epoch 1/5
 1/36 [..............................] - ETA: 21:16 -
…
============================>.] - ETA: 0s - loss: 12.5710 - mean_squared_error: 12.571036/36 [==============================] - 1s 38ms/step - loss: 12.3328 - mean_squared_error: 12.3328 - val_loss: 4.1407 - val_mean_squared_error: 4.1407
(41, 1438, 6)
Model: "sequential_1196"
_________________________________________________________________
 Layer (type)                Output Shape              Param #   
=================================================================
 1stConvL (Conv1D)           (None, 23008, 5)          105       
                                                                 
 1stPoolL (AveragePooling1D)  (None, 5752, 5)          0         
                                                                 
 2ndConvL (Conv1D)           (None, 5752, 6)           306       
                                                                 
 2ndPoolL (AveragePooling1D)  (None, 1438, 6)          0         
                                                                 
=================================================================
Total params: 411
Trainable params: 411
Non-trainable params: 0
_________________________________________________________________
----- train_PPG_AE -------
Model: "sequential_1197"
_________________________________________________________________
 Layer (type)                Output Shape              Param #   
=================================================================
 1stConvL (Conv1D)           (None, 23008, 5)          105       
                                                                 
 1stPoolL (AveragePooling1D)  (None, 5752, 5)          0         
                                                                 
 2ndConvL (Conv1D)           (None, 5752, 6)           306       
                                                                 
 2ndPoolL (AveragePooling1D)  (None, 1438, 6)          0         
                                                                 
 up_sampling1d_2394 (UpSampl  (None, 5752, 6)          0         
 ing1D)                                                          
                                                                 
 conv1d_transpose_2394 (Conv  (None, 5752, 6)          366       
 1DTranspose)                                                    
                                                                 
 up_sampling1d_2395 (UpSampl  (None, 23008, 6)         0         
 ing1D)                                                          
                                                                 
 conv1d_transpose_2395 (Conv  (None, 23008, 1)         121       
 1DTranspose)                                                    
                                                                 
=================================================================
Total params: 898
Trainable params: 898
Non-trainable params: 0
_________________________________________________________________
Epoch 1/5
 1/36 [..............................] - ETA: 18:29 -
…
